Sequence Length: 512
Number of Labels: 7


Model: dense_base
Input shape: (12, 512, 768)
----------------------------------------------------------------
        Layer (type)               Output Shape         Param #
================================================================
            Conv1d-1            [-1, 1, 393216]              12
            Conv1d-2             [-1, 256, 512]         196,864
            Conv1d-3             [-1, 256, 512]          65,792
            Linear-4                    [-1, 7]           1,799
================================================================
Total params: 264,467
Trainable params: 264,467
Non-trainable params: 0
----------------------------------------------------------------
Input size (MB): 18.00
Forward/backward pass size (MB): 5.00
Params size (MB): 1.01
Estimated Total Size (MB): 24.01
----------------------------------------------------------------


Model: dense_large
Input shape: (24, 512, 1024)
----------------------------------------------------------------
        Layer (type)               Output Shape         Param #
================================================================
            Conv1d-1            [-1, 1, 524288]              24
            Conv1d-2             [-1, 256, 512]         262,400
            Conv1d-3             [-1, 256, 512]          65,792
            Linear-4                    [-1, 7]           1,799
================================================================
Total params: 330,015
Trainable params: 330,015
Non-trainable params: 0
----------------------------------------------------------------
Input size (MB): 48.00
Forward/backward pass size (MB): 6.00
Params size (MB): 1.26
Estimated Total Size (MB): 55.26
----------------------------------------------------------------


Model: probing_base
Input shape: (12, 512, 768)
----------------------------------------------------------------
        Layer (type)               Output Shape         Param #
================================================================
            Linear-1                  [-1, 128]          98,432
            Linear-2                    [-1, 7]             903
================================================================
Total params: 99,335
Trainable params: 99,335
Non-trainable params: 0
----------------------------------------------------------------
Input size (MB): 18.00
Forward/backward pass size (MB): 0.00
Params size (MB): 0.38
Estimated Total Size (MB): 18.38
----------------------------------------------------------------


Model: probing_large
Input shape: (24, 512, 1024)
----------------------------------------------------------------
        Layer (type)               Output Shape         Param #
================================================================
            Linear-1                  [-1, 128]         131,200
            Linear-2                    [-1, 7]             903
================================================================
Total params: 132,103
Trainable params: 132,103
Non-trainable params: 0
----------------------------------------------------------------
Input size (MB): 48.00
Forward/backward pass size (MB): 0.00
Params size (MB): 0.50
Estimated Total Size (MB): 48.50
----------------------------------------------------------------


Model: probing_dense_base
Input shape: (12, 512, 768)
----------------------------------------------------------------
        Layer (type)               Output Shape         Param #
================================================================
            Conv1d-1             [-1, 256, 512]         196,864
            Conv1d-2             [-1, 256, 512]          65,792
            Linear-3                    [-1, 7]           1,799
================================================================
Total params: 264,455
Trainable params: 264,455
Non-trainable params: 0
----------------------------------------------------------------
Input size (MB): 18.00
Forward/backward pass size (MB): 2.00
Params size (MB): 1.01
Estimated Total Size (MB): 21.01
----------------------------------------------------------------


Model: probing_dense_large
Input shape: (24, 512, 1024)
----------------------------------------------------------------
        Layer (type)               Output Shape         Param #
================================================================
            Conv1d-1             [-1, 256, 512]         262,400
            Conv1d-2             [-1, 256, 512]          65,792
            Linear-3                    [-1, 7]           1,799
================================================================
Total params: 329,991
Trainable params: 329,991
Non-trainable params: 0
----------------------------------------------------------------
Input size (MB): 48.00
Forward/backward pass size (MB): 2.00
Params size (MB): 1.26
Estimated Total Size (MB): 51.26
----------------------------------------------------------------